models/rl_meta_learner_best.pth (torch, 93021 bytes, 24 tensors)

fc1.weight f4 [64, 10]
0	0xbdfaab26	-0.12239675
1	0x3cc4c7bc	0.024021022
2	0xbe87c7e6	-0.26519698
3	0xbe221444	-0.15828043
4	0xbe1770e2	-0.14789155
5	0x3e7b0e89	0.24517263
6	0x3e1bb793	0.15206747
7	0x3e6e8cae	0.23295853
8	0x3e4a6815	0.19766267
9	0x3e3da142	0.18518546
10	0x3d8161b3	0.06317463
11	0x3ec31d1a	0.3810814
12	0xbe519791	-0.20467974
13	0x3e91463d	0.283739
14	0xbdb2a94d	-0.08723698
15	0xbe02587b	-0.12729065
16	0x3eec095d	0.46100894
17	0x3f870627	1.0548753
18	0x3d2e4c17	0.042553034
19	0xbe660840	-0.22464085
20	0x3e685c95	0.22691567
21	0xbd9134df	-0.070901625
22	0x3dbded95	0.09273831
23	0x3f08894c	0.533345
24	0x3e748e2a	0.23882356
25	0x3e85f149	0.26160648
26	0x3e23f0eb	0.16009872
27	0xbf817bbd	-1.0115887
28	0x3e16f7d1	0.14742972
29	0xbd88e378	-0.06684011
30	0x3ee914b2	0.45523602
31	0x3e80bcdb	0.25144085
32	0xbeb8fb15	-0.3612906
33	0xbc021174	-0.007938731
34	0x3d919ec7	0.071103625
35	0x3e9c3dd2	0.30515915
36	0x3e9b7183	0.3036004
37	0x3f4d6856	0.8023733
38	0x3da36833	0.07978859
39	0xbe1b043c	-0.15138334
40	0xbdbdd355	-0.09268824
41	0xbcda34a0	-0.026636422
42	0xbe9f9290	-0.31166506
43	0x3d7e56f4	0.062094644
44	0xbcaa33c4	-0.020776637
45	0xbe8d4b41	-0.27596477
46	0x3e2c0d6b	0.16801994
47	0x3e914bdb	0.28378186
48	0xbdeb5404	-0.11490634
49	0x3dfb0afc	0.122579545
50	0xbe14779e	-0.14498755
51	0x3c3c1c29	0.011481323
52	0xbe9f07f9	-0.3106077
53	0xbdc65ced	-0.09685693
54	0x3ebb09c6	0.36530894
55	0x3ea269ee	0.31721443
56	0x3d434f4f	0.047683056
57	0x3f4454ca	0.7669188
58	0x3ea4e045	0.32202354
59	0x3e73339e	0.23750159
60	0xbda788b4	-0.08180371
61	0xbe3af5d3	-0.18257837
62	0xbe62728a	-0.22114006
63	0x3e1e3734	0.15450746
64	0x3dfab9f0	0.12242496
65	0x3e0aec64	0.13566738
66	0xbe814173	-0.25245246
67	0x3e6c2bc2	0.23063567
68	0xbdd61c8c	-0.10454664
69	0xbccd6e30	-0.025076956
70	0xbe27810f	-0.16357826
71	0xbdc94b36	-0.098287985
72	0x3c7c9ba0	0.015417963
73	0xbe2d77e5	-0.16940267
74	0xbbcc1200	-0.0062277317
75	0xbe230471	-0.15919663
76	0xbe9cf694	-0.30656874
77	0xbe3e5166	-0.18585739
78	0xbe954ce6	-0.2916023
79	0xbdc93134	-0.09823838
80	0x3f1c5637	0.61069053
81	0xbdb35bfb	-0.08757778
82	0xbec3d5f5	-0.38249174
83	0xbe8281b4	-0.2548958
84	0x3e6dc5fb	0.23220055
85	0x3e95bfb5	0.29247823
86	0x3e165d0a	0.14683929
87	0x3f5dac7e	0.8659133
88	0xbed23f6e	-0.41064018
89	0x3c894fc0	0.01676166
90	0x3f00ef5e	0.50365245
91	0xbe77d9e0	-0.24204206
92	0xbebb8c51	-0.3663049
93	0xbf0ae757	-0.54259247
94	0x3d006868	0.03134957
95	0x3fb2bbe5	1.3963591
96	0x3f0e66f5	0.5562585
97	0x3fa5769d	1.2926823
98	0xbe8c7c6d	-0.2743868
99	0xbd8703c8	-0.06592518
100	0xbee4eaff	-0.44710538
101	0x3ee9b4a8	0.45645642
102	0x3b257f62	0.0025252928
103	0x3ee389a8	0.4444096
104	0x3f00faa1	0.5038243
105	0x3de1054d	0.10987339
106	0x3e69db1f	0.22837494
107	0x3f3aa0fa	0.7290188
108	0x3ebb0791	0.3652921
109	0xbe857a0d	-0.2606968
110	0x3ee83d6f	0.4535937
111	0xbe6a9d09	-0.22911467
112	0xbd6c8ddf	-0.057752486
113	0xbee8c8bf	-0.45465657
114	0x3d8e39ca	0.06944616
115	0xbd9561a7	-0.07294016
116	0x3e1d138c	0.15339488
117	0x3e5e5e53	0.2171567
118	0xbedb40aa	-0.42822772
119	0x3e0ba6aa	0.13637796
120	0xbe30d06d	-0.17267008
121	0xbd87b7ba	-0.0662684
122	0x3e0d08c8	0.13772881
123	0xbe88ece7	-0.26743242
124	0xbe4d8333	-0.2006958
125	0xbe1c4c01	-0.15263368
126	0xbe264cd6	-0.16240248
127	0x3e9e1f91	0.30883458
128	0x3e5d12aa	0.21589151
129	0x3d0a2250	0.03372413
130	0x3eaa5ee8	0.33275533
131	0xbdd251e0	-0.10269523
132	0xbe4a34f3	-0.19746761
133	0xbd34ae3d	-0.04411148
134	0x3ebf8ad9	0.3741062
135	0x3e3475e8	0.17623103
136	0xbd9f429d	-0.07776377
137	0x3f54d333	0.83134764
138	0xbe9b2eba	-0.30309087
139	0x3e56b2c6	0.20966634
140	0x3d996533	0.07490005
141	0xbdf5ef48	-0.1200853
142	0x3e8448ef	0.25836894
143	0x3e7c1760	0.24618292
144	0xbcd2ed1c	-0.025747828
145	0xbe4d12da	-0.20026723
146	0xbe985408	-0.2975161
147	0x3e41da81	0.18931009
148	0xbd9ab717	-0.07554453
149	0x3d2d44d8	0.042301983
150	0xbe6b4097	-0.22973858
151	0xbe2966b4	-0.16543084
152	0xbc458460	-0.012055486
153	0x3e12900c	0.14312762
154	0xbe15f036	-0.14642414
155	0xbce40060	-0.02783221
156	0xbe6073f0	-0.21919227
157	0xbe99be6c	-0.30028093
158	0xbe8954bf	-0.2682247
159	0xbe57ae12	-0.21062496
160	0x3d1eb8c8	0.03875044
161	0xbd6af8f0	-0.05736631
162	0x3e6eab2e	0.23307487
163	0xbdb4cbd4	-0.0882794
164	0xbd3ad178	-0.04560992
165	0x3e7c0966	0.2461296
166	0xbe240a77	-0.16019617
167	0x3e94b983	0.29047784
168	0xbd8aac76	-0.067711756
169	0xbd2b5ce8	-0.04183665
170	0xbe0326b9	-0.1280774
171	0xbe430f3b	-0.19048779
172	0xbe616762	-0.22012094
173	0xbe990605	-0.29887405
174	0x3deb9a80	0.11504078
175	0xbe0004db	-0.12501852
176	0xbabdba00	-0.0014474988
177	0xbd632190	-0.05545193
178	0x3e94b0b9	0.2904108
179	0xbcdd1f60	-0.0269925
180	0x3a77b000	0.0009448528
181	0xbe5e70aa	-0.21722665
182	0xbe25d7f0	-0.16195655
183	0x3cbbda40	0.022931218
184	0xbe7c167a	-0.24617949
185	0x3e95a9b1	0.29231027
186	0xbe86a4fc	-0.26297748
187	0x3e30e530	0.17274928
188	0x3e8402b3	0.2578331
189	0x3b160d00	0.0022895932
190	0xbe7df2a5	-0.24799593
191	0x3df312de	0.11868833
192	0xbe372dd3	-0.17888574
193	0xbca8e221	-0.02061564
194	0xbd7707bc	-0.06031011
195	0x3ee5e8c6	0.44904155
196	0x3de9b6e5	0.114118375
197	0x3f9a02dc	1.2032123
198	0xbec1c6c4	-0.3784696
199	0x3e868bc3	0.26278505
200	0x3e385c3b	0.18003933
201	0xbd002a46	-0.031290315
202	0x3e4c59c3	0.19956116
203	0xbe63e6a7	-0.22255956
204	0xbe2d59b8	-0.16928756
205	0x3e49a050	0.1969006
206	0x3ede1298	0.4337356
207	0x3fa683a6	1.3008926
208	0xbef1b36f	-0.4720721
209	0xbe6105f2	-0.21974924
210	0xbe9dadd0	-0.3079667
211	0x3cca004a	0.024658341
212	0x3e303011	0.17205836
213	0x3c447a84	0.011992101
214	0xbbf1fccf	-0.0073848735
215	0x3eb28f8c	0.34875143
216	0x3e529c33	0.20567398
217	0x3f8d7781	1.1052095
218	0xbee7ec26	-0.45297354
219	0x3debd7fc	0.11515805
220	0x3e814079	0.252445
221	0xbdf9002a	-0.121582344
222	0xbe855250	-0.26039362
223	0x3e452646	0.19252881
224	0xbe734e79	-0.23760404
225	0xbdb51c40	-0.08843279
226	0x3e95fc47	0.29294035
227	0x3e5d14ce	0.21589968
228	0xbe0540aa	-0.13012949
229	0x3dddd4ac	0.108315796
230	0x3e84c58e	0.25931972
231	0x3dee7468	0.116432965
232	0xbea339e4	-0.31880105
233	0xbd1b41b8	-0.03790447
234	0xbe1fa0ca	-0.1558868
235	0x3e3b9bdc	0.18321174
236	0xbdae3763	-0.08506658
237	0x3f8fb9bc	1.1228557
238	0xbc178e30	-0.009250209
239	0xbe79575b	-0.2434973
240	0x3c00d84e	0.007864071
241	0xbe182b2f	-0.14860223
242	0x3eb3600a	0.3503421
243	0x3e9d475c	0.30718505
244	0x3e94043c	0.2890948
245	0xbd0588e9	-0.03260127
246	0x3c4ba161	0.012428612
247	0x3f506a9e	0.81412685
248	0x3d02a259	0.031893108
249	0x3d03cde8	0.03217879
250	0xbe6e8bba	-0.23295489
251	0x3e654297	0.22388683
252	0xbe92e370	-0.28689146
253	0x3e6508cb	0.22366636
254	0xbe85e2b1	-0.26149514
255	0x3dd3e565	0.10346488

fc1.bias f4 [64]
0	0x3dcd6f54	0.10031
1	0x3d0cb027	0.03434768
2	0x3e2730af	0.16327165
3	0xbe1edf8d	-0.15514965
4	0xbd921643	-0.07133152
5	0x3d333ea5	0.043760914
6	0xbe812f56	-0.25231427
7	0xbe421b45	-0.18955715
8	0x3e8729d4	0.263991
9	0xbdb02a70	-0.08601844
10	0x3e4d4e3f	0.2004938
11	0xbdbb9af3	-0.091604136
12	0xbe9e7ee6	-0.3095619
13	0xbdd49867	-0.10380631
14	0x3ec2f1c8	0.3807509
15	0xbdde9a48	-0.108692706
16	0xbe61277f	-0.21987723
17	0x3de772d0	0.113011956
18	0xbd573e48	-0.05254963
19	0x3dca8881	0.09889317
20	0x3da5825a	0.08081503
21	0x3e7a2f80	0.24432182
22	0xbd85ccec	-0.06533226
23	0x3e3a1933	0.18173675
24	0xbddc9aa5	-0.107716836
25	0xbea719fd	-0.32637015
26	0xbda4ea16	-0.08052461
27	0x3e100c97	0.14067303
28	0x3f0de168	0.5542207
29	0x3c47db70	0.012198314
30	0x3e93be19	0.2885597
31	0x3e469b64	0.19395214
32	0x3e2a6d5b	0.16643278
33	0xbc040d6e	-0.0080598425
34	0xbde90ae6	-0.11379032
35	0x3ad3eed0	0.0016169194
36	0x3eade9b5	0.33967367
37	0x3df5fa80	0.1201067
38	0xbe4c9dd0	-0.19982076
39	0x3eb59396	0.35464162
40	0xbe142a44	-0.14469248
41	0x3ea8b406	0.32949847
42	0xbe849367	-0.2589371
43	0x3e91ef02	0.2850266
44	0x3ddcd090	0.10781968
45	0xbe8e6562	-0.27811724
46	0x3d55a2b2	0.05215711
47	0x3ea89b79	0.32931116
48	0x3d9abb81	0.07555295
49	0xbc727288	-0.014797814
50	0xbe1adf67	-0.15124284
51	0x3e9500b6	0.29102105
52	0xbdc62dbc	-0.09676692
53	0x3de46453	0.11151948
54	0x3cea3d30	0.02859363
55	0xbe90d14e	-0.28284687
56	0xbca8b3d3	-0.02059356
57	0xbc5ff163	-0.013668391
58	0x3e2caf00	0.16863632
59	0x3e850538	0.25980544
60	0x3a954d00	0.0011390746
61	0x3d2af8a8	0.041741043
62	0x3e569904	0.20956808
63	0x3d80c22f	0.062870376

fc2.weight f4 [64, 64]
0	0x3dd56e5a	0.104214385
1	0x3ded892f	0.11598431
2	0xbf066205	-0.52493316
3	0x3d5cbffe	0.053894036
4	0x3b024428	0.001987705
5	0x3e9a48ad	0.30133572
6	0xbd4ed6b8	-0.05049774
7	0x3dd3bfec	0.103393406
8	0x3d9474e7	0.0724886
9	0xbfd83512	-1.6891196
10	0xbc348fc4	-0.0110206045
11	0x3ea26f54	0.31725562
12	0xbbb67720	-0.0055684
13	0x3ebe5cba	0.3718012
14	0x3d323c1d	0.04351436
15	0x3c924b28	0.017858103
16	0xbdd70a10	-0.10499966
17	0xbdab4198	-0.083621204
18	0x3cd74a80	0.026280642
19	0x3f1e0efa	0.617416
20	0x3eccba54	0.39985907
21	0x3e751613	0.23934202
22	0x3d80f2bc	0.06296298
23	0x3e979244	0.2960378
24	0x3dd3d33c	0.10343024
25	0xbc35558d	-0.01106776
26	0xbd867a5a	-0.065663055
27	0x3f1727ae	0.5904492
28	0xbe871deb	-0.26390013
29	0x3eb1fa60	0.34761333
30	0xbbc8c2b0	-0.006126724
31	0x3e832407	0.25613424
32	0x3e13a5b4	0.1441868
33	0x3d9a26be	0.07526921
34	0xbde41c1a	-0.111381724
35	0x3d794e6c	0.060865805
36	0xbdafb261	-0.08578945
37	0xbccfd6b8	-0.02537094
38	0x3a1c2e00	0.0005957782
39	0xbded0bf6	-0.11574547
40	0x3c0ad870	0.008474454
41	0x3e83fc56	0.25778455
42	0xbb552380	-0.003252238
43	0xbcd6c7b4	-0.026218273
44	0x3ceb6550	0.028734833
45	0xbd8e72fe	-0.06955527
46	0xbd84b0ac	-0.0647901
47	0x3e0864f2	0.13319758
48	0x3e842c00	0.2581482
49	0x3e797801	0.24362184
50	0x3ed2437f	0.4106712
51	0x3de7b40c	0.11313638
52	0x3f607148	0.87672853
53	0xbdee66f7	-0.11640733
54	0x3e7c7f3d	0.24657913
55	0x3dcb9732	0.099409476
56	0xbd4866e3	-0.048926245
57	0x3e6e2377	0.23255716
58	0x3c066c60	0.00820455
59	0x3db7b3fa	0.08969875
60	0xbda2f96a	-0.07957728
61	0x3e9d95fa	0.30778486
62	0x3da69a15	0.081348576
63	0x3f1ef305	0.6208957
64	0x3dc01afc	0.09380147
65	0xbdf455e6	-0.11930446
66	0xbb2e33ad	-0.0026581094
67	0xbdb19bd0	-0.08672297
68	0xbd83a15e	-0.06427263
69	0x3bf2ce14	0.0074098203
70	0xbd922bec	-0.07137284
71	0xbdb8d6f4	-0.09025374
72	0x3d6ccb3c	0.057811007
73	0xbde8d200	-0.11368179
74	0x3b845e92	0.004039594
75	0xbdb0c342	-0.086309925
76	0x3de9d434	0.11417428
77	0xbd9b4cc2	-0.07583
78	0x3c884932	0.016636465
79	0x3d223ac8	0.03960684
80	0x3d23df0c	0.040007636
81	0xbd3a50e4	-0.0454873
82	0x3df51d0e	0.11968432
83	0xbd8dadec	-0.069179386
84	0xbc547430	-0.012967154
85	0xbe0f3c76	-0.13987908
86	0x3cbf9770	0.02338764
87	0xbcec492a	-0.028843481
88	0xbdf9ddbe	-0.12200497
89	0x3dade066	0.08490066
90	0x3df81626	0.121135995
91	0x3d97af83	0.07406523
92	0xbc4ea75a	-0.012613142
93	0xbc32c4a9	-0.010911145
94	0x3be6ecf6	0.007047291
95	0xbe0f3962	-0.13986734
96	0xbdfb0884	-0.122574836
97	0x3da0ff2e	0.07861172
98	0xbd88d6b4	-0.06681576
99	0x3cdd5190	0.027016431
100	0x3da23069	0.0791939
101	0xbde476d2	-0.11155476
102	0xbdd23b64	-0.10265234
103	0x3db490e9	0.08816702
104	0xbde1e26e	-0.11029516
105	0xbd9b5789	-0.075850554
106	0xbde8a378	-0.11359304
107	0xbdffa588	-0.124827445
108	0x3d714860	0.058906913
109	0x39bcb200	0.00035990775
110	0xbcf26910	-0.029591113
111	0x3dac873d	0.08424232
112	0xbdc69d9a	-0.09698029
113	0x3c16ac0d	0.009196294
114	0x3d88457a	0.066538766
115	0xbdcd08c2	-0.10011436
116	0x3def43dc	0.11682865
117	0xbe0c24a5	-0.13685854
118	0x3c8d3ed8	0.01724188
119	0xbde6cf26	-0.11269979
120	0xbde737d7	-0.112899475
121	0x3d7f45cf	0.062322434
122	0xbaa6e500	-0.0012733042
123	0xbda78414	-0.08179489
124	0x3dad6b22	0.084676996
125	0x3dba4026	0.090942666
126	0xbe05cbfd	-0.13066097
127	0xbdbcf715	-0.09226815
128	0x3cb717c0	0.022350192
129	0xbc9dffb2	-0.019286964
130	0xbe01dc26	-0.12681636
131	0xbdb744eb	-0.08948692
132	0xbd3b32b4	-0.04570265
133	0xbc9ea8b2	-0.01936755
134	0xbd673100	-0.056443214
135	0xbc77e8d0	-0.01513119
136	0xbbaf239c	-0.005344821
137	0xbd9fcbc2	-0.078025356
138	0x3d6ed7f1	0.058311407
139	0x3d977c0b	0.07396706
140	0xbc9ec450	-0.019380718
141	0x3da8e1b6	0.08246176
142	0x3d9f4a05	0.0777779
143	0x3c7de930	0.015497491
144	0xbc2a3480	-0.010388494
145	0xbd831afe	-0.06401633
146	0xbd1df7b8	-0.03856632
147	0x3db3d852	0.08781494
148	0x3d5f79f8	0.054559678
149	0xbdd394da	-0.103311256
150	0xbb922b60	-0.004460737
151	0x3d4f1a9b	0.050562482
152	0x3cebd535	0.028788188
153	0x3d9d6176	0.07684605
154	0x3d63f320	0.055651784
155	0xbe0513d7	-0.1299585
156	0xbe17ffc1	-0.14843656
157	0xbd66588c	-0.05623679
158	0x3dbb7f95	0.09155194
159	0xbaf53a6e	-0.001870943
160	0xbd833d92	-0.06408228
161	0xbde74ee1	-0.11294342
162	0x3d59a120	0.053132176
163	0x3dabc75c	0.08387634
164	0xbd884921	-0.06654573
165	0xbc3e2690	-0.011605874
166	0x3dae0c98	0.08498496
167	0xbd18f6f1	-0.037344877
168	0xbdd78072	-0.10522546
169	0x3d986e3f	0.07442903
170	0xbdd48fd2	-0.10378994
171	0x3ccfb963	0.025356954
172	0x3bd28ce0	0.006425485
173	0xbd1f1054	-0.03883393
174	0xbb8794f6	-0.0041376306
175	0x3c7e63de	0.01552674
176	0x3d2fb5bb	0.04289792
177	0x3caee14c	0.021347664
178	0x3d02e67e	0.031958096
179	0x3da35239	0.07974667
180	0x3d832402	0.06403352
181	0xbc82d884	-0.015972383
182	0xbda4a00e	-0.080383405
183	0xbd8ef350	-0.06980002
184	0xbd6a02d1	-0.057131592
185	0xbd891025	-0.066925324
186	0xbdcfc9ee	-0.10145937
187	0x3caffacb	0.021481892
188	0x3dc4744c	0.09592494
189	0x3c945b7e	0.018110033
190	0xbdfc2ea7	-0.12313586
191	0xbd3ed884	-0.046593204
192	0xbd5078aa	-0.050896324
193	0x3e430fd5	0.19049008
194	0xbdd3d59d	-0.10343478
195	0x3e0ebc8a	0.1393911
196	0x3d8c8ea1	0.06863142
197	0x3ce5a655	0.028033415
198	0x3df1d074	0.118073374
199	0xbbaaec20	-0.0052161366
200	0x3df38749	0.11891038
201	0xbfbf39b4	-1.4939485
202	0x3e8cb0ac	0.2747854
203	0x3e939514	0.28824675
204	0x3d5bc7f4	0.053657487
205	0x3e63a98f	0.2223265
206	0x3d847657	0.06467884
207	0x3df64e34	0.12026635
208	0x3d43f920	0.047845006
209	0xbaff7400	-0.0019489527
210	0xbd8f17c8	-0.06986958
211	0x3ec173c2	0.3778363
212	0x3e8c69a5	0.2742435
213	0x3ed986e8	0.42485738
214	0xbdf63ff6	-0.12023918
215	0x3dc3c80f	0.095596425
216	0x3ead6ad2	0.3387056
217	0x3c383961	0.011244149
218	0x3df933f6	0.12168114
219	0x3f02d3c6	0.5110439
220	0x3e30e90e	0.17276403
221	0x3eb1f974	0.3476063
222	0x3e7d3d70	0.24730468
223	0x3ebe1713	0.3712698
224	0x3d093d2f	0.033505615
225	0x3e9a271f	0.30107972
226	0x3c52bea0	0.012862831
227	0x3ddea28f	0.10870849
228	0x3e6ec5b0	0.233176
229	0xbd989846	-0.07450919
230	0xbd231a28	-0.039819866
231	0x3d7047f3	0.058662366
232	0xbb015080	-0.001973182
233	0x3e4da186	0.20081148
234	0x3cbb02e8	0.022828534
235	0x3dedc168	0.11609155
236	0x3dd3f830	0.103500724
237	0x3dbf9390	0.09354317
238	0xbdf5e877	-0.1200723
239	0x3ead8a74	0.33894694
240	0x3dacf74d	0.084456064
241	0x3e69fde9	0.22850765
242	0x3f023113	0.5085613
243	0x3e914f1d	0.2838067
244	0x3f443f86	0.7665943
245	0x3db7ac53	0.08968415
246	0x3dfbd6ad	0.122968055
247	0xbc9d3fc0	-0.019195437
248	0x3e57d91a	0.21078911
249	0x3e4c125e	0.19928882
250	0xbd839a34	-0.06425896
251	0x3e8cbdc8	0.27488542
252	0xbdc8ea40	-0.09810305
253	0x3e813966	0.25239104
254	0x3e99dc04	0.3005067
255	0x3f162f46	0.58665884

fc2.bias f4 [64]
0	0x3ccbf051	0.024894865
1	0x3dc66c2e	0.096886024
2	0xbc652bdc	-0.013987508
3	0x3e2cf561	0.1689048
4	0xbd4c67c0	-0.04990363
5	0x3dd6d9bc	0.10490748
6	0x3e41ab89	0.18913092
7	0xbd67c3a4	-0.05658306
8	0xbdec317e	-0.115328774
9	0x3e15ae9d	0.14617391
10	0xbdd939ff	-0.10606765
11	0xbd1cb943	-0.038262617
12	0x3da3cde1	0.07998253
13	0x3d5dd024	0.054153576
14	0xbbc93680	-0.00614053
15	0x3e34911e	0.17633483
16	0x3da2ce8c	0.07949552
17	0x3cb48e96	0.022040647
18	0x3c1f340c	0.009716999
19	0x3dbf3b16	0.093374416
20	0x3ad3d7e6	0.0016162365
21	0x3ef22852	0.47296387
22	0xbd16f750	-0.03685695
23	0x3e6141c0	0.21997738
24	0x3ab16ac2	0.0013535845
25	0x3dc5a7c4	0.096511394
26	0x3e273c36	0.16331562
27	0x3d8d420e	0.068973646
28	0x3e79dd85	0.24400909
29	0x3e0c0bc1	0.13676359
30	0x3d8b1ed8	0.06792992
31	0x3e37a7eb	0.1793515
32	0x3cc5688c	0.024097703
33	0x3e5db02c	0.21649235
34	0x3d93b0df	0.0721147
35	0x3d86de66	0.06585388
36	0x3e702c28	0.23454344
37	0x3da29c9c	0.07940027
38	0x3e8d5fc7	0.27612135
39	0x3b14247d	0.0022604757
40	0x3d0a7c2d	0.03380983
41	0x3c96d0bb	0.018410077
42	0x3c13e6d2	0.0090272
43	0x3d970a80	0.073750496
44	0x3e0350f0	0.12823844
45	0x3d20f0b6	0.03929206
46	0xbe282222	-0.1641927
47	0xbd234dae	-0.039869003
48	0x3ded90a1	0.115998514
49	0x3e286145	0.16443355
50	0xbdde9056	-0.10867374
51	0x3d305938	0.043053836
52	0x3e41b0d6	0.18915114
53	0x3d8d45ef	0.068981044
54	0x3e0a5b55	0.13511403
55	0xbdad60b0	-0.08465707
56	0x3e17e5c9	0.1483375
57	0xbd23e38c	-0.040011927
58	0x3e8bc644	0.27299702
59	0xbdad6fe0	-0.08468604
60	0xbce55878	-0.027996287
61	0xbd61ca4c	-0.055124566
62	0xbdd4661a	-0.10371037
63	0x3e251170	0.16119933

fc3.weight f4 [5, 64]
0	0xbe7c6750	-0.24648786
1	0x3c8f7214	0.017510451
2	0xbd6fad36	-0.058514796
3	0xbe880312	-0.26564842
4	0x3d42868c	0.047491595
5	0x3dd3c5f2	0.103404894
6	0xbe880eac	-0.26573694
7	0x3db179f4	0.08665839
8	0xbd8f348d	-0.06992445
9	0xbec235db	-0.37931713
10	0x3ddfdeff	0.10931205
11	0x3da69938	0.08134693
12	0x3dab005c	0.08349678
13	0x3c94ec78	0.018179163
14	0xbc7ecf10	-0.015552297
15	0xbe890ed3	-0.26769122
16	0xbe96d82e	-0.29461807
17	0xbe94e214	-0.29078734
18	0xbe881d86	-0.26585025
19	0xbeb22ae5	-0.3479835
20	0xbeb4cda1	-0.35313132
21	0x3f636cc1	0.8883782
22	0x3da18360	0.07886386
23	0xbea0ac1d	-0.31381312
24	0x3db09e4b	0.08623942
25	0xbd443099	-0.04789791
26	0xbe46c0e2	-0.19409516
27	0xbe8014c5	-0.25015846
28	0xbeaeee47	-0.34166166
29	0xbe92c9ad	-0.2866949
30	0x3dc72097	0.09723013
31	0xbe9067ac	-0.28204095
32	0x3d652f2a	0.055953182
33	0xbe0f3727	-0.13985883
34	0xbd52b401	-0.051441196
35	0xbe797fa1	-0.24365093
36	0xbe9d3d7b	-0.30710968
37	0x3dbcdf8a	0.09222324
38	0xbdf85efe	-0.12127493
39	0xbe9ce0d7	-0.3064029
40	0x3dfd9711	0.12382329
41	0x3d489515	0.0489703
42	0x3c299fd0	0.010353044
43	0xbe26ac00	-0.1627655
44	0xbeb2ef9b	-0.3494843
45	0x3d67f9c8	0.056634694
46	0xbea6918e	-0.32532924
47	0xbc1f2e47	-0.009715623
48	0xbeb4d7ae	-0.353208
49	0xbe80f893	-0.25189647
50	0xbcae4610	-0.021273643
51	0xbcf38ca2	-0.029730145
52	0xbde2b3ae	-0.110694274
53	0xbec53cf2	-0.3852306
54	0xbe0c2bf0	-0.13688636
55	0xbd1a5314	-0.037676886
56	0xbe49be9c	-0.19701618
57	0x3dadb01a	0.08480854
58	0xbeade511	-0.33963826
59	0x3dcef87a	0.10105987
60	0x3d54f850	0.05199462
61	0xbeac7b14	-0.3368765
62	0x3ddeb8a4	0.10875061
63	0xbe030d40	-0.12798023
64	0xbea58e35	-0.32335058
65	0xbc7748c0	-0.015093029
66	0x3d313301	0.04326153
67	0xbe5801a4	-0.21094376
68	0x3de81e28	0.11333877
69	0xbcb5a428	-0.022173002
70	0xbe8948d7	-0.26813385
71	0x3df689f2	0.1203803
72	0x3d524c32	0.051342197
73	0xbe6eadc2	-0.23308471
74	0x3cb814ee	0.022470918
75	0xbd86242a	-0.065498665
76	0x3dd2e1b0	0.10296953
77	0x3dd56882	0.10420324
78	0x3dd56baa	0.10420926
79	0xbe4094e7	-0.18806802
80	0xbea17202	-0.31532294
81	0xbe6407b7	-0.22268568
82	0xbe875c1a	-0.26437455
83	0xbe19acc2	-0.15007308
84	0xbf22f33a	-0.63652384
85	0x3f65a4ca	0.89704573
86	0x3df009ac	0.11720595
87	0xbe6c9368	-0.23103106
88	0xbd477d65	-0.04870357
89	0xbd2ad287	-0.04170468
90	0xbe9ab9c7	-0.30219862
91	0xbe03a605	-0.128563
92	0xbe873d33	-0.2641388
93	0xbea31420	-0.31851292
94	0xbd699ae2	-0.057032473
95	0xbeb0f53e	-0.34562105
96	0x3d8ee5d3	0.06977429
97	0xbe8481e3	-0.25880346
98	0x3dd238d1	0.10264743
99	0xbe1adb41	-0.15122701
100	0xbe902895	-0.28155962
101	0x3d021479	0.031757805
102	0xbe9aa537	-0.30204174
103	0xbeca4efa	-0.3951338
104	0x3d729c8d	0.05923133
105	0x3dcce3e3	0.100044034
106	0x3de6aa96	0.112630054
107	0xbe77d2be	-0.24201486
108	0xbe3dd2a4	-0.18537384
109	0xbdf2f05e	-0.11862253
110	0xbe8ca457	-0.2746913
111	0x3db91f95	0.09039227
112	0xbe690c35	-0.22758563
113	0xbe5c0bb5	-0.21488841
114	0xbc778190	-0.015106574
115	0xbc0ce253	-0.008598882
116	0xbe430851	-0.19046141
117	0xbe05b224	-0.13056237
118	0xbeb04035	-0.34423986
119	0xbd8228fe	-0.06355475
120	0xbe9c952a	-0.30582553
121	0x3d8af4e6	0.06784992
122	0xbea4c489	-0.32181194
123	0xbdd6b870	-0.104843974
124	0x3dd58c82	0.1042719
125	0xbeb0a026	-0.34497184
126	0x3c76495d	0.01503214
127	0xbe8e1400	-0.27749634
128	0xbe8750b9	-0.26428774
129	0xbd22439c	-0.03961526
130	0x3dbf602b	0.093445145
131	0xbe06304a	-0.13104358
132	0xbdb763a0	-0.08954549
133	0xbde42ef2	-0.111417666
134	0xbdf7ca08	-0.12099081
135	0xbdaa1120	-0.083040476
136	0x3bef3514	0.0073000286
137	0xbea5d0ad	-0.3238577
138	0x3d9b66ea	0.07587989
139	0xbdf53e1c	-0.11974737
140	0xbdae16e3	-0.08500459
141	0x3d6acc24	0.05732359
142	0xbce0fd90	-0.027464658
143	0xbe49d434	-0.19709855
144	0xbea194a1	-0.31558707
145	0xbe454137	-0.19263159
146	0xbeb7c0ff	-0.35889432
147	0xbe1b8f74	-0.15191442
148	0xbef40c84	-0.476658
149	0x3f5ce642	0.86288846
150	0xbdd3392e	-0.103136405
151	0xbeadb7ad	-0.33929196
152	0x3d2a296b	0.041543406
153	0x3de3b964	0.11119345
154	0xbeaae39c	-0.33376777
155	0xbe830050	-0.25586176
156	0xbe3e5179	-0.18585767
157	0xbe81c6ff	-0.25347134
158	0xbd49cfd9	-0.049270485
159	0xbe98a2b8	-0.29811645
160	0x3deaf5ac	0.114726394
161	0xbe6658f5	-0.22494872
162	0xbdfe4807	-0.12416082
163	0xbe8abeba	-0.27098638
164	0xbe54377c	-0.2072429
165	0x3c79a407	0.015236861
166	0xbea8bf66	-0.32958525
167	0xbf049af3	-0.51798934
168	0xbd1b6a6e	-0.037943296
169	0x3d816bdb	0.063194
170	0xbc763e40	-0.01502949
171	0xbe871544	-0.26383412
172	0xbe5bb8b4	-0.21457177
173	0x3da69c0a	0.08135231
174	0xbef5894d	-0.47956315
175	0xbcd0820f	-0.025452642
176	0xbe13dd0b	-0.1443979
177	0xbe80ae24	-0.2513286
178	0x3d5e6d70	0.054303586
179	0x3d25ae58	0.04044947
180	0xbe2e1524	-0.17000252
181	0xbe97b876	-0.2963292
182	0xbe3858e1	-0.18002655
183	0xbd31eeb4	-0.043440536
184	0xbea354d8	-0.31900668
185	0x3d803a7a	0.062611535
186	0xbe3dc8a3	-0.18533568
187	0xbd94ee54	-0.0727202
188	0x3c0bcb70	0.00853239
189	0xbec333b1	-0.38125375
190	0xbdae3715	-0.085066
191	0xbe936283	-0.28786096
192	0xbeac1e6c	-0.3361696
193	0x3d802b85	0.06258301
194	0x3c937bc0	0.018003345
195	0xbe9b968a	-0.3038829
196	0xbdb38804	-0.08766177
197	0xbd9cd2e8	-0.07657415
198	0xbe6cc7f3	-0.2312315
199	0xbd25204c	-0.040314004
200	0x3dab6997	0.08369749
201	0xbe78cf8c	-0.24297923
202	0x3de4503d	0.11148117
203	0x3dce9196	0.10086362
204	0x3dcefaf2	0.10106458
205	0x3d6b3700	0.0574255
206	0x3d8e58a6	0.06950502
207	0xbe989c39	-0.29806688
208	0xbea8ab27	-0.3294308
209	0xbe9c4c00	-0.30526733
210	0xbe821aac	-0.25410974
211	0xbe8e31c4	-0.27772343
212	0xbe8a97a9	-0.27068833
213	0x3f8e7c10	1.1131611
214	0x3d975b52	0.07390465
215	0xbe7f5a2b	-0.2493674
216	0xbd0aacd2	-0.03385622
217	0xbd2bbfe2	-0.04193104
218	0xbe5fe573	-0.21864872
219	0xbe84dd18	-0.2594993
220	0xbea000b3	-0.31250533
221	0xbe313a09	-0.17307295
222	0x3d919044	0.071075946
223	0xbe2582ee	-0.16163227
224	0xbb436287	-0.0029813366
225	0xbea38b30	-0.3194213
226	0x3d8a5eea	0.06756385
227	0xbe8f1823	-0.27948102
228	0xbe742005	-0.2384034
229	0xbca3e3f4	-0.020006157
230	0xbe83a7ba	-0.25713903
231	0xbe169311	-0.14704539
232	0xbdd8d611	-0.10587705
233	0x3d3035bd	0.04302
234	0x3db72bd0	0.089439034
235	0xbe954d9f	-0.29160783
236	0xbe7c0c7b	-0.24614136
237	0x3c9c96f4	0.019114949
238	0xbe266636	-0.16249928
239	0x3d327cfe	0.043576233
240	0xbe7c5679	-0.24642362
241	0xbe6d37e8	-0.23165858
242	0x3dcc2bc0	0.09969282
243	0x3d6bc5b8	0.057561606
244	0xbe965bb8	-0.2936685
245	0xbe42520c	-0.18976611
246	0xbe8fc699	-0.28081205
247	0x3def1316	0.11673562
248	0xbe9f1e9d	-0.31078044
249	0xbdf5146a	-0.11966784
250	0xbe5b8b7e	-0.21439931
251	0xbc98de23	-0.01866061
252	0x3dd8fd48	0.105951846
253	0xbe3b2613	-0.18276243
254	0x3d8bba36	0.06822626
255	0xbe9f1ccd	-0.3107666

fc3.bias f4 [5]
0	0xbdf433b6	-0.119239256
1	0x3bb806c8	0.0056160428
2	0xbe04bbf9	-0.12962331
3	0xbd1491e8	-0.03627196
4	0xbea61a5f	-0.32441995

fc1.weight f4 [64, 10]
0	0xbdfaab26	-0.12239675
1	0x3cc4c7bc	0.024021022
2	0xbe87c7e6	-0.26519698
3	0xbe221444	-0.15828043
4	0xbe1770e2	-0.14789155
5	0x3e7b0e89	0.24517263
6	0x3e1bb793	0.15206747
7	0x3e6e8cae	0.23295853
8	0x3e4a6815	0.19766267
9	0x3e3da142	0.18518546
10	0x3d7e173d	0.06203388
11	0x3eb8c8ef	0.360908
12	0xbe7c3eda	-0.24633351
13	0x3e6ea3f0	0.23304725
14	0xbdc5764a	-0.096417025
15	0x3c68b038	0.01420217
16	0x3ef49a48	0.47773957
17	0x3f8cc77b	1.0998377
18	0x3ca1c443	0.019746905
19	0xbe660840	-0.22464085
20	0x3e6b3a17	0.22971378
21	0xbd87d873	-0.06633081
22	0x3dc310fd	0.09524725
23	0x3f0bc6cd	0.5460022
24	0x3e6d6c26	0.23185787
25	0x3e332f9e	0.17498633
26	0x3e4b1a06	0.19834146
27	0xbf76009a	-0.9609467
28	0x3e4cb9c9	0.19992746
29	0xbd88e378	-0.06684011
30	0x3ef5664c	0.4792961
31	0x3e772585	0.24135406
32	0xbebc5de5	-0.36790386
33	0xbccac5a7	-0.024752451
34	0x3d95f456	0.07321994
35	0x3eca0c40	0.3946247
36	0x3e848525	0.2588283
37	0x3f397569	0.7244478
38	0xbd662906	-0.056191467
39	0xbe1b043c	-0.15138334
40	0xbd79b5d0	-0.060964406
41	0x3ba6dd00	0.005092263
42	0xbe8f55cc	-0.27995145
43	0x3dc01afc	0.09380147
44	0x3c3349e0	0.010942906
45	0xbe7a6dba	-0.2445592
46	0x3e4c6f32	0.19964293
47	0x3ea187a3	0.31548795
48	0xbdeb5404	-0.11490634
49	0x3dfb0afc	0.122579545
50	0xbe09f096	-0.13470683
51	0x3c163cc6	0.009169763
52	0xbea2e1c2	-0.31812865
53	0xbde772de	-0.11301206
54	0x3ebf8b79	0.37411097
55	0x3edb6e49	0.42857578
56	0x3d0f5d74	0.035001233
57	0x3f3f0a25	0.74624854
58	0x3e98e1ec	0.29859865
59	0x3e73339e	0.23750159
60	0xbda788b4	-0.08180371
61	0xbe3af5d3	-0.18257837
62	0xbe62728a	-0.22114006
63	0x3e1e3734	0.15450746
64	0x3dfab9f0	0.12242496
65	0x3e0aec64	0.13566738
66	0xbe814173	-0.25245246
67	0x3e6c2bc2	0.23063567
68	0xbdd61c8c	-0.10454664
69	0xbccd6e30	-0.025076956
70	0xbe27810f	-0.16357826
71	0xbdc94b36	-0.098287985
72	0x3c7c9ba0	0.015417963
73	0xbe2d77e5	-0.16940267
74	0xbbcc1200	-0.0062277317
75	0xbe230471	-0.15919663
76	0xbe9cf694	-0.30656874
77	0xbe3e5166	-0.18585739
78	0xbe954ce6	-0.2916023
79	0xbdc93134	-0.09823838
80	0x3f22db3c	0.63615775
81	0xbdd15adb	-0.102224074
82	0xbecb2665	-0.3967773
83	0xbe8b9234	-0.27259982
84	0x3e67afe2	0.22625688
85	0x3ead966d	0.33903828
86	0x3dbf6b5d	0.0934665
87	0x3f445e83	0.76706713
88	0xbed23f6e	-0.41064018
89	0x3c894fc0	0.01676166
90	0x3eb97cf8	0.36228156
91	0xbe600ca5	-0.21879824
92	0xbe3982fb	-0.18116371
93	0xbeb1b96d	-0.3471178
94	0x3d554040	0.052063227
95	0x3f80c799	1.0060912
96	0x3e71fedc	0.23632377
97	0x3f519d5c	0.81880736
98	0xbe8c7c6d	-0.2743868
99	0xbd8703c8	-0.06592518
100	0xbee5dc5a	-0.44894677
101	0x3edb646e	0.4285006
102	0xbd60bdff	-0.054868694
103	0x3ec14cc4	0.3775388
104	0x3ef8dec5	0.4860746
105	0x3e8a9bd8	0.27072024
106	0x3e87878d	0.26470605
107	0x3f4ce0f5	0.8003076
108	0x3eb51e98	0.35374904
109	0xbe857a0d	-0.2606968
110	0x3ee83d6f	0.4535937
111	0xbe6a9d09	-0.22911467
112	0xbd6c8ddf	-0.057752486
113	0xbee8c8bf	-0.45465657
114	0x3d8e39ca	0.06944616
115	0xbd9561a7	-0.07294016
116	0x3e1d138c	0.15339488
117	0x3e5e5e53	0.2171567
118	0xbedb40aa	-0.42822772
119	0x3e0ba6aa	0.13637796
120	0xbe30d06d	-0.17267008
121	0xbd87b7ba	-0.0662684
122	0x3e0d08c8	0.13772881
123	0xbe88ece7	-0.26743242
124	0xbe4d8333	-0.2006958
125	0xbe1c4c01	-0.15263368
126	0xbe264cd6	-0.16240248
127	0x3e9e1f91	0.30883458
128	0x3e5d12aa	0.21589151
129	0x3d0a2250	0.03372413
130	0x3eb36f42	0.3504582
131	0xbdc7dd5d	-0.097590186
132	0xbe525e9a	-0.205439
133	0xbd60bebc	-0.0548694
134	0x3ec6a4be	0.38797563
135	0x3e91720a	0.28407317
136	0xbd9b2976	-0.075762674
137	0x3f50286d	0.81311685
138	0xbe9b2eba	-0.30309087
139	0x3e56b2c6	0.20966634
140	0x3da2dfe3	0.07952859
141	0xbe1cbb11	-0.15305735
142	0x3e307904	0.17233664
143	0x3e1a0427	0.15040646
144	0xbd4f92d2	-0.050677128
145	0x3c2df037	0.010616354
146	0xbe4eda48	-0.20200455
147	0x3ead7a70	0.33882475
148	0xbd837a25	-0.064197816
149	0x3d2d44d8	0.042301983
150	0xbe6b4097	-0.22973858
151	0xbe2966b4	-0.16543084
152	0xbc458460	-0.012055486
153	0x3e12900c	0.14312762
154	0xbe15f036	-0.14642414
155	0xbce40060	-0.02783221
156	0xbe6073f0	-0.21919227
157	0xbe99be6c	-0.30028093
158	0xbe8954bf	-0.2682247
159	0xbe57ae12	-0.21062496
160	0x3d1eb8c8	0.03875044
161	0xbd6af8f0	-0.05736631
162	0x3e6eab2e	0.23307487
163	0xbdb4cbd4	-0.0882794
164	0xbd3ad178	-0.04560992
165	0x3e7c0966	0.2461296
166	0xbe240a77	-0.16019617
167	0x3e94b983	0.29047784
168	0xbd8aac76	-0.067711756
169	0xbd2b5ce8	-0.04183665
170	0xbe0326b9	-0.1280774
171	0xbe430f3b	-0.19048779
172	0xbe616762	-0.22012094
173	0xbe990605	-0.29887405
174	0x3deb9a80	0.11504078
175	0xbe0004db	-0.12501852
176	0xbabdba00	-0.0014474988
177	0xbd632190	-0.05545193
178	0x3e94b0b9	0.2904108
179	0xbcdd1f60	-0.0269925
180	0x3a77b000	0.0009448528
181	0xbe5e70aa	-0.21722665
182	0xbe25d7f0	-0.16195655
183	0x3cbbda40	0.022931218
184	0xbe7c167a	-0.24617949
185	0x3e95a9b1	0.29231027
186	0xbe86a4fc	-0.26297748
187	0x3e30e530	0.17274928
188	0x3e8402b3	0.2578331
189	0x3b160d00	0.0022895932
190	0xbe777abd	-0.24167915
191	0x3defa8f9	0.11702151
192	0xbe4d75ad	-0.20064421
193	0xbd3902ca	-0.045168675
194	0xbd5a25e1	-0.05325878
195	0x3f11f35b	0.57011956
196	0x3e030624	0.12795311
197	0x3f9b45b0	1.2130642
198	0xbec1c6c4	-0.3784696
199	0x3e868bc3	0.26278505
200	0x3e405be1	0.18785049
201	0xbcf34077	-0.029693825
202	0x3e3afec7	0.18261252
203	0xbe7810f8	-0.24225223
204	0xbe22831c	-0.15870327
205	0x3ea28a37	0.31746075
206	0x3ee3eb9c	0.44515693
207	0x3fa7232f	1.3057612
208	0xbef1b36f	-0.4720721
209	0xbe6105f2	-0.21974924
210	0xbea1e4cd	-0.31619874
211	0x3c672487	0.01410783
212	0x3e000c6d	0.1250474
213	0xbcfaf108	-0.03063251
214	0xbbd37bb4	-0.0064539555
215	0x3f044ecb	0.5168273
216	0x3e6fca83	0.23417096
217	0x3f92a8ee	1.1457803
218	0xbee8eaec	-0.4549173
219	0x3debd7fc	0.11515805
220	0x3e814079	0.252445
221	0xbdf9002a	-0.121582344
222	0xbe855250	-0.26039362
223	0x3e452646	0.19252881
224	0xbe734e79	-0.23760404
225	0xbdb51c40	-0.08843279
226	0x3e95fc47	0.29294035
227	0x3e5d14ce	0.21589968
228	0xbe0540aa	-0.13012949
229	0x3dddd4ac	0.108315796
230	0x3e89d0e2	0.26917177
231	0x3df59d4c	0.119928926
232	0xbea5dc61	-0.32394698
233	0xbd3ed9f2	-0.046594568
234	0xbe1098bf	-0.14120768
235	0x3e9cec97	0.30649254
236	0xbdc9ca29	-0.09853012
237	0x3f8a84b9	1.0821754
238	0xbe1bff88	-0.15234196
239	0xbe79575b	-0.2434973
240	0x3b8455a0	0.0040385276
241	0xbe334115	-0.17505296
242	0x3e979fcb	0.296141
243	0x3e7a4868	0.24441683
244	0x3e8c04a7	0.273473
245	0x3df7a86a	0.12092669
246	0x3d210f5c	0.03932129
247	0x3f608761	0.8770657
248	0x3c574c38	0.013140731
249	0x3d03cde8	0.03217879
250	0xbe6e8bba	-0.23295489
251	0x3e654297	0.22388683
252	0xbe92e370	-0.28689146
253	0x3e6508cb	0.22366636
254	0xbe85e2b1	-0.26149514
255	0x3dd3e565	0.10346488

fc1.bias f4 [64]
0	0x3dcd6f54	0.10031
1	0x3c683e8c	0.014175069
2	0x3e2bdeea	0.16784254
3	0xbe293392	-0.16523579
4	0xbd2236a0	-0.039602876
5	0x3d29c6db	0.04144941
6	0xbe812f56	-0.25231427
7	0xbe421b45	-0.18955715
8	0x3e7f543a	0.24934474
9	0xbd808fee	-0.062774524
10	0x3e30adc6	0.1725379
11	0xbdbb9af3	-0.091604136
12	0xbe9e7ee6	-0.3095619
13	0xbdca23e8	-0.0987013
14	0x3eb20ff8	0.34777808
15	0xbdde9a48	-0.108692706
16	0xbe61277f	-0.21987723
17	0x3de772d0	0.113011956
18	0xbd573e48	-0.05254963
19	0x3dc71e93	0.097226284
20	0x3da8c772	0.08241166
21	0x3e6f61d1	0.23377158
22	0xbd85ccec	-0.06533226
23	0x3e3dada1	0.18523265
24	0xbe096320	-0.1341672
25	0xbea719fd	-0.32637015
26	0xbda4ea16	-0.08052461
27	0x3e00a617	0.12563358
28	0x3ef376c2	0.47551543
29	0xbc27219c	-0.010200884
30	0x3e6682cd	0.22510834
31	0x3e38fa01	0.18064119
32	0x3e213f00	0.15746689
33	0xbd32b9e2	-0.043634303
34	0xbde90ae6	-0.11379032
35	0xbc9a92d2	-0.018868838
36	0x3e9657c9	0.2936385
37	0x3df5fa80	0.1201067
38	0xbe4c9dd0	-0.19982076
39	0x3e9ec093	0.31006297
40	0xbe142a44	-0.14469248
41	0x3e9d1e4a	0.3068717
42	0xbe849367	-0.2589371
43	0x3e836d5a	0.25669366
44	0x3ddcd090	0.10781968
45	0xbe8e6562	-0.27811724
46	0x3ca1942e	0.019723978
47	0x3e991df2	0.2990566
48	0x3d8fbbec	0.07018265
49	0xbd34dcce	-0.04415589
50	0xbe221bd5	-0.1583093
51	0x3e82b78d	0.25530663
52	0xbddd90aa	-0.10818608
53	0x3cd02902	0.025410179
54	0x3c98896a	0.018620212
55	0xbe90d14e	-0.28284687
56	0xbd28d43d	-0.04121803
57	0xbd02ab5e	-0.03190171
58	0x3e2caf00	0.16863632
59	0x3e6a42a5	0.22876985
60	0x3a954d00	0.0011390746
61	0x3d3db8e8	0.04631892
62	0x3e3ac37a	0.18238631
63	0x3d602074	0.05471845

fc2.weight f4 [64, 64]
0	0x3dd56e5a	0.104214385
1	0x3e0655bf	0.13118647
2	0xbf177c40	-0.59173965
3	0x3df8c706	0.12147336
4	0x3d03666c	0.0320801
5	0x3ed3b05c	0.4134549
6	0xbd4ed6b8	-0.05049774
7	0x3dd3bfec	0.103393406
8	0x3e1b3af1	0.15159203
9	0xbf3bbe5d	-0.73337346
10	0xbcb71544	-0.022349007
11	0x3ea26f54	0.31725562
12	0xbbb67720	-0.0055684
13	0x3ee30243	0.44337663
14	0x3cbc068b	0.022952339
15	0x3c924b28	0.017858103
16	0xbdd70a10	-0.10499966
17	0xbdab4198	-0.083621204
18	0x3cd74a80	0.026280642
19	0x3f3c61f2	0.7358695
20	0x3eea22df	0.4572973
21	0x3e8878a8	0.26654553
22	0x3d80f2bc	0.06296298
23	0x3ebbd25d	0.36683932
24	0x3dcf2eca	0.10116346
25	0xbc35558d	-0.01106776
26	0xbd867a5a	-0.065663055
27	0x3f263c1c	0.6493547
28	0xbe9e13f6	-0.30874604
29	0x3ebc0294	0.36720717
30	0xbd74b884	-0.05974628
31	0x3e989f26	0.2980892
32	0x3e439ac2	0.19102004
33	0x3d6277af	0.05528992
34	0xbde41c1a	-0.111381724
35	0x3d697647	0.056997564
36	0xbdd2d52d	-0.10294566
37	0xbccfd6b8	-0.02537094
38	0x3a1c2e00	0.0005957782
39	0xbe37ab3b	-0.17936413
40	0x3c0ad870	0.008474454
41	0x3e8e9383	0.27846918
42	0xbb552380	-0.003252238
43	0xbcf4958d	-0.029856468
44	0x3ceb6550	0.028734833
45	0xbd8e72fe	-0.06955527
46	0x3ce7df9a	0.028304864
47	0x3de66d6f	0.112513416
48	0x3ecddda9	0.40208176
49	0x3e701141	0.23444082
50	0x3eef6129	0.46753815
51	0x3dd35dde	0.10320638
52	0x3f70c446	0.9404949
53	0xbe2810e4	-0.16412693
54	0x3e8cb544	0.27482045
55	0x3dcb9732	0.099409476
56	0xbd4b9333	-0.049700927
57	0x3e8704ef	0.26370952
58	0x3c066c60	0.00820455
59	0x3d9af9b6	0.0756716
60	0xbda2f96a	-0.07957728
61	0x3ec542d2	0.38527542
62	0x3d9356d9	0.07194299
63	0x3f400a71	0.7501593
64	0x3dc01afc	0.09380147
65	0xbdf455e6	-0.11930446
66	0xbb2e33ad	-0.0026581094
67	0xbdb19bd0	-0.08672297
68	0xbd83a15e	-0.06427263
69	0x3bf2ce14	0.0074098203
70	0xbd922bec	-0.07137284
71	0xbdb8d6f4	-0.09025374
72	0x3d6ccb3c	0.057811007
73	0xbde8d200	-0.11368179
74	0x3b845e92	0.004039594
75	0xbdb0c342	-0.086309925
76	0x3de9d434	0.11417428
77	0xbd9b4cc2	-0.07583
78	0x3c884932	0.016636465
79	0x3d223ac8	0.03960684
80	0x3d23df0c	0.040007636
81	0xbd3a50e4	-0.0454873
82	0x3df51d0e	0.11968432
83	0xbd8dadec	-0.069179386
84	0xbc547430	-0.012967154
85	0xbe0f3c76	-0.13987908
86	0x3cbf9770	0.02338764
87	0xbcec492a	-0.028843481
88	0xbdf9ddbe	-0.12200497
89	0x3dade066	0.08490066
90	0x3df81626	0.121135995
91	0x3d97af83	0.07406523
92	0xbc4ea75a	-0.012613142
93	0xbc32c4a9	-0.010911145
94	0x3be6ecf6	0.007047291
95	0xbe0f3962	-0.13986734
96	0xbdfb0884	-0.122574836
97	0x3da0ff2e	0.07861172
98	0xbd88d6b4	-0.06681576
99	0x3cdd5190	0.027016431
100	0x3da23069	0.0791939
101	0xbde476d2	-0.11155476
102	0xbdd23b64	-0.10265234
103	0x3db490e9	0.08816702
104	0xbde1e26e	-0.11029516
105	0xbd9b5789	-0.075850554
106	0xbde8a378	-0.11359304
107	0xbdffa588	-0.124827445
108	0x3d714860	0.058906913
109	0x39bcb200	0.00035990775
110	0xbcf26910	-0.029591113
111	0x3dac873d	0.08424232
112	0xbdc69d9a	-0.09698029
113	0x3c16ac0d	0.009196294
114	0x3d88457a	0.066538766
115	0xbdcd08c2	-0.10011436
116	0x3def43dc	0.11682865
117	0xbe0c24a5	-0.13685854
118	0x3c8d3ed8	0.01724188
119	0xbde6cf26	-0.11269979
120	0xbde737d7	-0.112899475
121	0x3d7f45cf	0.062322434
122	0xbaa6e500	-0.0012733042
123	0xbda78414	-0.08179489
124	0x3dad6b22	0.084676996
125	0x3dba4026	0.090942666
126	0xbe05cbfd	-0.13066097
127	0xbdbcf715	-0.09226815
128	0x3cb717c0	0.022350192
129	0xbc9dffb2	-0.019286964
130	0xbe01dc26	-0.12681636
131	0xbdb744eb	-0.08948692
132	0xbd3b32b4	-0.04570265
133	0xbc9ea8b2	-0.01936755
134	0xbd673100	-0.056443214
135	0xbc77e8d0	-0.01513119
136	0xbbaf239c	-0.005344821
137	0xbd9fcbc2	-0.078025356
138	0x3d6ed7f1	0.058311407
139	0x3d977c0b	0.07396706
140	0xbc9ec450	-0.019380718
141	0x3da8e1b6	0.08246176
142	0x3d9f4a05	0.0777779
143	0x3c7de930	0.015497491
144	0xbc2a3480	-0.010388494
145	0xbd831afe	-0.06401633
146	0xbd1df7b8	-0.03856632
147	0x3db3d852	0.08781494
148	0x3d5f79f8	0.054559678
149	0xbdd394da	-0.103311256
150	0xbb922b60	-0.004460737
151	0x3d4f1a9b	0.050562482
152	0x3cebd535	0.028788188
153	0x3d9d6176	0.07684605
154	0x3d63f320	0.055651784
155	0xbe0513d7	-0.1299585
156	0xbe17ffc1	-0.14843656
157	0xbd66588c	-0.05623679
158	0x3dbb7f95	0.09155194
159	0xbaf53a6e	-0.001870943
160	0xbd833d92	-0.06408228
161	0xbde74ee1	-0.11294342
162	0x3d59a120	0.053132176
163	0x3dabc75c	0.08387634
164	0xbd884921	-0.06654573
165	0xbc3e2690	-0.011605874
166	0x3dae0c98	0.08498496
167	0xbd18f6f1	-0.037344877
168	0xbdd78072	-0.10522546
169	0x3d986e3f	0.07442903
170	0xbdd48fd2	-0.10378994
171	0x3ccfb963	0.025356954
172	0x3bd28ce0	0.006425485
173	0xbd1f1054	-0.03883393
174	0xbb8794f6	-0.0041376306
175	0x3c7e63de	0.01552674
176	0x3d2fb5bb	0.04289792
177	0x3caee14c	0.021347664
178	0x3d02e67e	0.031958096
179	0x3da35239	0.07974667
180	0x3d832402	0.06403352
181	0xbc82d884	-0.015972383
182	0xbda4a00e	-0.080383405
183	0xbd8ef350	-0.06980002
184	0xbd6a02d1	-0.057131592
185	0xbd891025	-0.066925324
186	0xbdcfc9ee	-0.10145937
187	0x3caffacb	0.021481892
188	0x3dc4744c	0.09592494
189	0x3c945b7e	0.018110033
190	0xbdfc2ea7	-0.12313586
191	0xbd3ed884	-0.046593204
192	0xbd5078aa	-0.050896324
193	0x3e538a99	0.2065834
194	0xbe3f91fa	-0.1870803
195	0x3e5872fe	0.21137616
196	0x3dcb5214	0.099277645
197	0x3e006448	0.12538254
198	0x3df1d074	0.118073374
199	0xbbaaec20	-0.0052161366
200	0x3e4b0118	0.19824636
201	0xbf1f736d	-0.622855
202	0x3e80bf42	0.25145918
203	0x3e939514	0.28824675
204	0x3d5bc7f4	0.053657487
205	0x3e94c27d	0.29054633
206	0x3d149692	0.036276408
207	0x3df64e34	0.12026635
208	0x3d43f920	0.047845006
209	0xbaff7400	-0.0019489527
210	0xbd8f17c8	-0.06986958
211	0x3eff0417	0.49807808
212	0x3eaf42a3	0.34230527
213	0x3eea0eb7	0.45714352
214	0xbdf63ff6	-0.12023918
215	0x3e2cb859	0.16867198
216	0x3ea913fb	0.33023056
217	0x3c383961	0.011244149
218	0x3df933f6	0.12168114
219	0x3f11d778	0.56969404
220	0x3de93d18	0.11388606
221	0x3eb7da12	0.35908562
222	0x3e323511	0.17403056
223	0x3ed3f612	0.41398674
224	0x3db4276f	0.08796584
225	0x3e89e200	0.26930237
226	0x3c52bea0	0.012862831
227	0x3dd14695	0.102185406
228	0x3e4f257b	0.20229141
229	0xbd989846	-0.07450919
230	0xbd231a28	-0.039819866
231	0xbc4947e1	-0.012285204
232	0xbb015080	-0.001973182
233	0x3e5f8cc4	0.21831042
234	0x3cbb02e8	0.022828534
235	0x3dd74edf	0.1051309
236	0x3dd3f830	0.103500724
237	0x3dbf9390	0.09354317
238	0xbcb0c643	-0.021578914
239	0x3e9db3a4	0.30801117
240	0x3e6739cd	0.22580643
241	0x3e528e52	0.20562103
242	0x3f125199	0.5715576
243	0x3e86df96	0.26342458
244	0x3f5610a8	0.83619165
245	0x3cd849f7	0.026402457
246	0x3e1a4622	0.15065816
247	0xbc9d3fc0	-0.019195437
248	0x3e4cc20d	0.199959
249	0x3e66a39d	0.22523351
250	0xbd839a34	-0.06425896
251	0x3e7f69ba	0.24942675
252	0xbdc8ea40	-0.09810305
253	0x3ea83128	0.32850003
254	0x3e911466	0.28335875
255	0x3f392865	0.7232726

fc2.bias f4 [64]
0	0x3b82e85e	0.0039949855
1	0x3dc66c2e	0.096886024
2	0xbc652bdc	-0.013987508
3	0x3e0e1a27	0.13877164
4	0xbd4c67c0	-0.04990363
5	0x3dd6d9bc	0.10490748
6	0x3e2c628b	0.16834466
7	0xbd67c3a4	-0.05658306
8	0xbdec317e	-0.115328774
9	0x3def773c	0.11692664
10	0xbdd939ff	-0.10606765
11	0xbd1cb943	-0.038262617
12	0x3da3cde1	0.07998253
13	0x3d5dd024	0.054153576
14	0xbbc93680	-0.00614053
15	0x3e1cd1b5	0.15314372
16	0x3d672c3d	0.056438673
17	0xba630397	-0.0008659898
18	0xbc095770	-0.008382663
19	0x3d8b2f2f	0.06796109
20	0xbcaab2d8	-0.020837232
21	0x3ec84287	0.39113256
22	0xbd16f750	-0.03685695
23	0x3e4a9c4c	0.19786185
24	0x3ab16ac2	0.0013535845
25	0x3dc5a7c4	0.096511394
26	0x3e1768e8	0.14786112
27	0x3d3211cc	0.043474004
28	0x3e5a6fea	0.21331754
29	0x3de8e49b	0.11371728
30	0x3d8b1ed8	0.06792992
31	0x3e1d7325	0.15375955
32	0x3cc5688c	0.024097703
33	0x3e46493b	0.19363873
34	0x3d93b0df	0.0721147
35	0x3d405bbe	0.046962492
36	0x3e527d0f	0.20555519
37	0x3da29c9c	0.07940027
38	0x3e839a37	0.25703594
39	0xbcb3f897	-0.021969123
40	0x3d7a6f72	0.06114144
41	0x3c96d0bb	0.018410077
42	0x3c13e6d2	0.0090272
43	0x3d4d8715	0.050177652
44	0x3dc64f86	0.09683137
45	0x3d20f0b6	0.03929206
46	0xbe43aff7	-0.19110094
47	0xbd234dae	-0.039869003
48	0x3db31864	0.087448865
49	0x3e0c6ca0	0.13713312
50	0xbdde9056	-0.10867374
51	0x3d305938	0.043053836
52	0x3e2b85fa	0.16750327
53	0x3d2309a3	0.039804112
54	0x3df01a2f	0.11723744
55	0xbdad60b0	-0.08465707
56	0x3e009ad2	0.1255906
57	0xbd23e38c	-0.040011927
58	0x3e7abf8f	0.24487136
59	0xbdad6fe0	-0.08468604
60	0xbce55878	-0.027996287
61	0xbdaaef19	-0.083463855
62	0xbdd4661a	-0.10371037
63	0x3e0e2342	0.13880637

fc3.weight f4 [5, 64]
0	0xbe86b316	-0.26308507
1	0x3c8f7214	0.017510451
2	0xbd6fad36	-0.058514796
3	0xbe841123	-0.25794324
4	0x3d42868c	0.047491595
5	0x3dd3c5f2	0.103404894
6	0xbe83704e	-0.2567162
7	0x3db179f4	0.08665839
8	0xbd8f348d	-0.06992445
9	0xbebfb955	-0.37446085
10	0x3ddfdeff	0.10931205
11	0x3da69938	0.08134693
12	0x3dab005c	0.08349678
13	0x3c94ec78	0.018179163
14	0xbc7ecf10	-0.015552297
15	0xbe855706	-0.26042956
16	0xbe910759	-0.28325918
17	0xbe90ac2d	-0.2825636
18	0xbe852984	-0.26008236
19	0xbeb00f16	-0.3438651
20	0xbec02a69	-0.37532356
21	0x3eec6145	0.4616796
22	0x3da18360	0.07886386
23	0xbe9b81aa	-0.30372363
24	0x3db09e4b	0.08623942
25	0xbd443099	-0.04789791
26	0xbe3d45f6	-0.18483719
27	0xbe767e08	-0.24071515
28	0xbeaa9371	-0.33315614
29	0xbe8df0e1	-0.2772284
30	0x3dc72097	0.09723013
31	0xbe8a3b57	-0.26998398
32	0x3d652f2a	0.055953182
33	0xbdfda4f2	-0.123849764
34	0xbd52b401	-0.051441196
35	0xbe702477	-0.2345141
36	0xbe9859de	-0.29756063
37	0x3dbcdf8a	0.09222324
38	0xbdd64fce	-0.1046444
39	0xbea94d8d	-0.3306698
40	0x3e634181	0.22192957
41	0x3d489515	0.0489703
42	0x3c299fd0	0.010353044
43	0xbe179585	-0.14803131
44	0xbeadd19d	-0.33948985
45	0x3d67f9c8	0.056634694
46	0xbeb1df95	-0.34740892
47	0xbc1f2e47	-0.009715623
48	0xbeb261f8	-0.3484037
49	0xbe77d176	-0.24200997
50	0xbcae4610	-0.021273643
51	0xbcf38ca2	-0.029730145
52	0xbdbefc39	-0.093254514
53	0xbec0de1b	-0.37669453
54	0xbdf7f8c1	-0.12107993
55	0xbd1a5314	-0.037676886
56	0xbe3d25d7	-0.18471466
57	0x3dadb01a	0.08480854
58	0xbeaa72ba	-0.33290654
59	0x3dcef87a	0.10105987
60	0x3d54f850	0.05199462
61	0xbeb951b9	-0.36195162
62	0x3ddeb8a4	0.10875061
63	0xbde52413	-0.11188521
64	0xbea27859	-0.31732443
65	0xbc7748c0	-0.015093029
66	0x3d313301	0.04326153
67	0xbe5062c9	-0.20350184
68	0x3de81e28	0.11333877
69	0xbcb5a428	-0.022173002
70	0xbe83a9f1	-0.25715593
71	0x3df689f2	0.1203803
72	0x3d524c32	0.051342197
73	0xbe67d6f3	-0.2264059
74	0x3cb814ee	0.022470918
75	0xbd86242a	-0.065498665
76	0x3dd2e1b0	0.10296953
77	0x3dd56882	0.10420324
78	0x3dd56baa	0.10420926
79	0xbe33df77	-0.17565714
80	0xbe9d2a0b	-0.3069614
81	0xbe56fb0d	-0.20994206
82	0xbe848533	-0.25882873
83	0xbe043d01	-0.12913896
84	0xbf238cdc	-0.6388681
85	0x3f063058	0.52417517
86	0x3df009ac	0.11720595
87	0xbe626d39	-0.22111978
88	0xbd477d65	-0.04870357
89	0xbd2ad287	-0.04170468
90	0xbe982264	-0.29713738
91	0xbdf065ed	-0.11738191
92	0xbe831861	-0.25604537
93	0xbe9fab17	-0.3118522
94	0xbd699ae2	-0.057032473
95	0xbeae480f	-0.3403935
96	0x3d8ee5d3	0.06977429
97	0xbe809395	-0.25112596
98	0x3dd238d1	0.10264743
99	0xbe0d8bed	-0.13822909
100	0xbe8d373e	-0.2758121
101	0x3d021479	0.031757805
102	0xbe981dd9	-0.29710272
103	0xbeca6d62	-0.39536577
104	0x3c9a5ee1	0.01884407
105	0x3dcce3e3	0.100044034
106	0x3de6aa96	0.112630054
107	0xbe70c508	-0.23512661
108	0xbe3673f8	-0.17817676
109	0xbdf2f05e	-0.11862253
110	0xbe88ef00	-0.26744843
111	0x3db91f95	0.09039227
112	0xbe5b28b3	-0.21402244
113	0xbe567198	-0.2094177
114	0xbc778190	-0.015106574
115	0xbc0ce253	-0.008598882
116	0xbe37a04e	-0.17932245
117	0xbdf37b9d	-0.11888812
118	0xbeac9c7d	-0.3371314
119	0xbd8228fe	-0.06355475
120	0xbe98d4f5	-0.29849973
121	0x3d8af4e6	0.06784992
122	0xbea111f8	-0.31459022
123	0xbdd6b870	-0.104843974
124	0x3dd58c82	0.1042719
125	0xbeaef7a0	-0.34173298
126	0x3c76495d	0.01503214
127	0xbe8a22a5	-0.26979557
128	0xbe7fa07e	-0.24963567
129	0xbd22439c	-0.03961526
130	0x3dbf602b	0.093445145
131	0xbdf57010	-0.11984265
132	0xbdb763a0	-0.08954549
133	0xbde42ef2	-0.111417666
134	0xbdd5f2b0	-0.104466796
135	0xbdaa1120	-0.083040476
136	0x3bef3514	0.0073000286
137	0xbea14c3a	-0.3150347
138	0x3d9b66ea	0.07587989
139	0xbdf53e1c	-0.11974737
140	0xbdae16e3	-0.08500459
141	0x3d6acc24	0.05732359
142	0xbce0fd90	-0.027464658
143	0xbe395e36	-0.18102345
144	0xbe9c1e48	-0.30491853
145	0xbe339507	-0.17537318
146	0xbeb400a2	-0.35156733
147	0xbdfe16fa	-0.12406726
148	0xbeeff076	-0.46863145
149	0x3f04f291	0.51932627
150	0xbdd3392e	-0.103136405
151	0xbea7dfd7	-0.32787964
152	0x3d2a296b	0.041543406
153	0x3de3b964	0.11119345
154	0xbea84a38	-0.32869124
155	0xbe77e0e3	-0.24206881
156	0xbe325d31	-0.17418362
157	0xbe7a2ff5	-0.24432357
158	0xbd49cfd9	-0.049270485
159	0xbe954da0	-0.29160786
160	0x3deaf5ac	0.114726394
161	0xbe5d8f29	-0.21636643
162	0xbdfe4807	-0.12416082
163	0xbe82f3e9	-0.25576714
164	0xbe4bd18e	-0.19904158
165	0x3c79a407	0.015236861
166	0xbea72195	-0.3264281
167	0xbf03e792	-0.51525223
168	0xbe09cd03	-0.13457112
169	0x3d816bdb	0.063194
170	0xbc763e40	-0.01502949
171	0xbe83b88f	-0.25726745
172	0xbe51e931	-0.20499112
173	0x3da69c0a	0.08135231
174	0xbeef7620	-0.4676981
175	0xbcd0820f	-0.025452642
176	0xbdfcecf2	-0.12349881
177	0xbe79f815	-0.24411042
178	0x3d5e6d70	0.054303586
179	0x3d25ae58	0.04044947
180	0xbe21a9ff	-0.15787505
181	0xbe9068f3	-0.2820507
182	0xbe3008e7	-0.17190896
183	0xbd31eeb4	-0.043440536
184	0xbe9f5c41	-0.31125072
185	0x3d803a7a	0.062611535
186	0xbe325280	-0.17414284
187	0xbd94ee54	-0.0727202
188	0x3c0bcb70	0.00853239
189	0xbebd85fc	-0.37016284
190	0xbdae3715	-0.085066
191	0xbe8f97af	-0.28045413
192	0xbeb1ab45	-0.3470098
193	0x3d802b85	0.06258301
194	0x3c937bc0	0.018003345
195	0xbe9967ec	-0.299621
196	0xbdb38804	-0.08766177
197	0xbd9cd2e8	-0.07657415
198	0xbe64697a	-0.22305861
199	0xbd25204c	-0.040314004
200	0x3dab6997	0.08369749
201	0xbe76d473	-0.2410448
202	0x3de4503d	0.11148117
203	0x3dce9196	0.10086362
204	0x3dcefaf2	0.10106458
205	0x3d6b3700	0.0574255
206	0x3d8e58a6	0.06950502
207	0xbe96204b	-0.29321513
208	0xbea56ba2	-0.3230868
209	0xbe982d36	-0.29721993
210	0xbe814729	-0.25249603
211	0xbe880126	-0.26563376
212	0xbe940098	-0.28906703
213	0x3f3cec7a	0.73798335
214	0x3d975b52	0.07390465
215	0xbe77de7c	-0.24205965
216	0xbd0aacd2	-0.03385622
217	0xbd2bbfe2	-0.04193104
218	0xbe5f680d	-0.21817036
219	0xbe80a7fd	-0.25128165
220	0xbe9d4536	-0.30716866
221	0xbe2b9b7c	-0.16758531
222	0x3d919044	0.071075946
223	0xbe20baf1	-0.15696312
224	0xbb436287	-0.0029813366
225	0xbea0d7ed	-0.31414738
226	0x3d8a5eea	0.06756385
227	0xbe8b18b2	-0.2716728
228	0xbe70b1b5	-0.2350529
229	0xbca3e3f4	-0.020006157
230	0xbe829a98	-0.2550857
231	0xbe2c2add	-0.16813226
232	0xbe1ff13d	-0.15619369
233	0x3d3035bd	0.04302
234	0x3db72bd0	0.089439034
235	0xbe938f20	-0.28820133
236	0xbe76ad28	-0.24089491
237	0x3c9c96f4	0.019114949
238	0xbe364b2d	-0.17802115
239	0x3d327cfe	0.043576233
240	0xbe71ac3c	-0.23600858
241	0xbe68da0f	-0.22739433
242	0x3dcc2bc0	0.09969282
243	0x3d6bc5b8	0.057561606
244	0xbe929f2c	-0.28637064
245	0xbe38a766	-0.18032607
246	0xbe8e29c9	-0.27766255
247	0x3def1316	0.11673562
248	0xbe9da44d	-0.30789414
249	0xbdf5146a	-0.11966784
250	0xbe57df82	-0.21081355
251	0xbc98de23	-0.01866061
252	0x3dd8fd48	0.105951846
253	0xbe4b38c2	-0.1984587
254	0x3d8bba36	0.06822626
255	0xbe9cc424	-0.30618393

fc3.bias f4 [5]
0	0xbdb58fec	-0.088653415
1	0x3c12eb77	0.008967272
2	0xbe01ab0e	-0.12662908
3	0xbcc84931	-0.024448963
4	0xbe97f97e	-0.29682535
